cifar.model (torch_old, 249684 bytes, 10 tensors)

conv1.weight f4 [6, 3, 5, 5]
-0.2211278 0.025275147 0.06892957 -0.16886155 -0.10987783 0.024381068 -0.019649096 -0.18091565
-0.1966994 0.11764975 -0.045251444 -0.18650097 -0.37522155 -0.07188328 0.04760041 -0.18727879
-0.14166082 0.1834259 0.068942994 -0.01798049 0.22595488 0.19724454 0.2162715 0.10658459
0.16141807 -0.090691224 0.031610437 0.071920276 -0.05852818 -0.012607894 0.016088217 0.19216616
0.004220605 -0.055017617 0.11725659 -0.05546779 -0.009624579 -0.11391947 -0.10362238 0.1333807
0.0059115384 -0.1712746 0.15451434 0.0032084095 -0.0012585698 0.11280725 0.14604789 0.16328838
0.11778963 0.0724101 0.052354485 0.009513876 0.040705927 0.07135374 -0.0031838105 0.11607484
0.013716619 0.033770222 -0.14388712 0.0823385 -0.0019874033 -0.0357388 -0.16759463 -0.14123821
0.054261904 -0.1961829 -0.13904364 0.037861314 0.087003954 -0.16366455 0.00716333 0.040604405
0.09620168 -0.0031527574 0.05748782 -0.16466199 -0.06394142 0.026889313 0.009195854 0.019036433
-0.0798965 -0.131412 -0.046088424 -0.07567636 -0.0035577386 -0.13906322 0.013364316 0.039391298
0.0761275 0.07411349 0.08717302 0.08596931 0.027248131 0.116779506 -0.037566453 -0.0018013447
-0.0022364615 0.016590435 0.15297322 0.12531042 0.06347185 0.03172079 0.013341171 -0.03864807
-0.021217057 0.022013241 -0.009982691 -0.08516898 0.06681387 0.07758687 -0.026027828 0.03166962
-0.010832618 -0.07490143 0.024391906 0.040217597 0.02696061 0.074794166 0.06269609 0.016781043
-0.04445612 0.029210994 -0.10314489 -0.044703156 -0.123278 0.1476135 0.13733219 0.0982631
0.07197052 0.08571754 0.13666587 0.05437344 0.121328406 0.07026275 0.09175344 0.07945829
0.0107444385 0.07136948 0.16011992 -0.02139256 -0.06736252 0.06768508 -0.015249975 -0.08470215
-0.008359399 -0.105899185 -0.16411257 -0.011653724 -0.12508875 -0.0656029 0.06283521 -0.0077488907
-0.13287568 -0.1813201 -0.14359978 -0.100382224 0.099848524 0.08661163 -0.04600208 -0.18120557
-0.18352486 0.05380653 0.03739504 -0.06701288 -0.007481609 0.016136998 -0.00618705 -0.1345797
0.03355552 -0.025828449 -0.07691258 0.15986785 -0.042553373 0.02224761 0.090925306 -0.09806684
-0.0022086077 -0.09593366 -0.06399566 0.17371461 -0.16221738 0.07967096 0.09199426 -0.008582153
0.10238596 -0.20424578 -0.025384279 0.15078835 0.1573162 0.12422956 -0.08855397 0.017652992
-0.007462401 0.09333361 0.011680172 -0.16142143 0.0058014225 0.0044557047 -0.11515886 0.055502027
0.08304832 0.050694376 0.0055683944 -0.10033514 0.09936021 -0.13492195 0.097350016 -0.008843775
0.063484065 0.07077957 -0.025651148 0.06461582 0.030566989 0.08654745 0.0558689 0.073273994
-0.14260034 -0.17422159 -0.05892763 -0.057730075 -0.132353 0.065953575 -0.12566908 -0.029075325
-0.15027456 -0.014477845 0.1701436 0.020009251 -0.21650974 0.07268337 0.09382655 0.015786102
-0.15043105 -0.12158981 0.110027805 0.18616757 -0.1834662 0.053239614 0.14965725 -0.06162453
0.19734272 -0.08651899 0.13916443 0.16347198 -0.12598369 0.17689292 -0.0922839 0.069632836
0.1739786 -0.14269264 -0.081141405 0.1971592 -0.004635977 -0.15521993 0.13810372 0.08186575
00000000: 536f 62be d30d cf3c f22a 8d3d 0bea 2cbe
00000010: a107 e1bd ceba c73c 24f7 a0bc f441 39be
00000020: 916b 49be 5af2 f03d 9459 39bd 1cfa 3ebe
00000030: 0a1d c0be 8b37 93bd a6f8 423d 03c6 3fbe
00000040: 890f 11be 00d4 3b3e fc31 8d3d d24b 93bc
00000050: b760 673e 79fa 493e 4776 5d3e 0649 da3d
00000060: c74a 253e 52bc b9bd f279 013d f04a 933d
00000070: 3fbb 6fbd 5791 4ebc 70cb 833c 35c7 443e
00000080: 004d 8a3b 275a 61bd 3924 f03d 3232 63bd
00000090: 69b0 1dbc 9c4e e9bd f837 d4bd f394 083e
000000a0: 94b5 c13b 9c62 2fbe 0239 1e3e 2e44 523b
000000b0: 98f6 a4ba 7d07 e73d 948d 153e 1235 273e
000000c0: b13b f13d bf4b 943d a871 563d 17e0 1b3c
000000d0: 42bb 263d e921 923d 7aa7 50bb a5b8 ed3d
000000e0: acbb 603c a552 0a3d 2557 13be 16a1 a83d
000000f0: 183f 02bb d962 12bd ed9d 2bbe c0a0 10be
00000100: bb41 5e3d 2ce4 48be 7561 0ebe 7714 1b3d
00000110: 212f b23d ae97 27be 5eba ea3b ce50 263d
00000120: 6305 c53d 7e9e 4ebb 5978 6b3d 279d 28be
00000130: b8f3 82bd fa46 dc3c 35aa 163c 4bf2 9b3c
00000140: c7a0 a3bd de90 06be 37c7 3cbd 35fc 9abd
00000150: f328 69bb 9766 0ebe 01f6 5a3c c558 213d
00000160: bce8 9b3d d0c8 973d c587 b23d ad10 b03d
00000170: 7937 df3c 182a ef3d 48df 19bd 191b ecba
00000180: 9991 12bb aae8 873c 03a5 1c3e 6051 003e
00000190: 87fd 813d a9ed 013d ed94 5a3c 704d 1ebd
000001a0: 65cf adbc 1d55 b43c 718e 23bc 136d aebd
000001b0: b6d5 883d dde5 9e3d 5038 d5bc 01b8 013d
000001c0: 4b7b 31bc ec65 99bd 89d1 c73c 35bb 243d
000001d0: 7fdc dc3c af2d 993d cf66 803d 6678 893c
000001e0: 9f17 36bd e54b ef3c a13d d3bd a81a 37bd
000001f0: 2d79 fcbd fe27 173e cfa0 0c3e 2a3e c93d
00000200: 4865 933d ad8c af3d 23f2 0b3e afb6 5e3d
00000210: 077b f83d ebe5 8f3d 3ae9 bb3d 07bb a23d
00000220: 7109 303c 292a 923d 7af6 233e 733f afbc
00000230: 5cf5 89bd 7a9e 8a3d 08db 79bc 5278 adbd
00000240: dcf5 08bc ace1 d8bd 200d 28be 43ef 3ebc
00000250: 4417 00be d05a 86bd bfaf 803d 68ea fdbb
00000260: 9010 08be faab 39be d20b 13be 3295 cdbd
00000270: 627d cc3d 7061 b13d ad6c 3cbd f48d 39be
00000280: f1ed 3bbe 3c64 5c3d 8b2b 193d 0d3e 89bd
00000290: 4928 f5bb bd31 843c bdbc cabb 43cf 09be
000002a0: 8371 093d 2f96 d3bc 5884 9dbd 66b4 233e
000002b0: 724c 2ebd 9f40 b63c 0c37 ba3d 44d7 c8bd
000002c0: 4abe 10bb de78 c4bd 2810 83bd 3ee2 313e
000002d0: 501c 26be 872a a33d 7d67 bc3d 299c 0cbc
000002e0: bbaf d13d ce25 51be b1f2 cfbc 4368 1a3e
000002f0: 7f17 213e 116c fe3d c95b b5bd 029d 903c
00000300: 2887 f4bb b125 bf3d 315e 3f3c a94b 25be
00000310: dc19 be3b 2901 923b 69d8 ebbd 1856 633d
00000320: 3d15 aa3d e8a4 4f3d 1477 b63b 837c cdbd
00000330: 5e7d cb3d fb28 0abe 725f c73d 7be5 10bc
00000340: ef03 823d e1f4 903d 5b22 d2bc 4d55 843d
00000350: 9f67 fa3c ca3f b13d cad6 643d ad10 963d
00000360: d305 12be 2567 32be 195e 71bd 5f76 6cbd
00000370: 8b87 07be ab12 873d 65af 00be 602f eebc
00000380: 93e1 19be 7c34 6dbc 203a 2e3e 71ea a33c
00000390: bbb4 5dbe 05db 943d 2228 c03d db51 813c
000003a0: 990a 1abe 1404 f9bd 4256 e13d b6a2 3e3e
000003b0: 90de 3bbe c811 5a3d c03f 193e 016a 7cbd
000003c0: 3614 4a3e de30 b1bd 1f81 0e3e 3365 273e
000003d0: de01 01be 6b23 353e 57ff bcbd a99b 8e3d
000003e0: 7227 323e 051e 12be 772d a6bd 1ae4 493e
000003f0: 65e9 97bb f9f1 1ebe 106b 0d3e 3ba9 a73d

conv1.bias f4 [6]
0.10071787 0.21486922 -0.0077447454 0.14595878 -0.008612799 -0.067534186
00000000: 2c45 ce3d ad06 5c3e a2c7 fdbb 3876 153e
00000010: b31c 0dbc 5d4f 8abd

conv2.weight f4 [16, 6, 5, 5]
-0.11145152 -0.027917918 0.015112577 -0.12408209 -0.121488504 0.0045555565 -0.12101778 -0.12553123
-0.18511075 -0.12357731 -0.08259204 -0.1473893 -0.2259357 0.0053166724 0.2160947 -0.14004196
-0.102529034 0.1353646 0.21741803 0.20388357 -0.10548375 0.08860789 0.16710283 0.16262144
0.030521322 -0.026987182 -0.020548 0.011196709 0.0054674046 -0.14846663 0.041051727 0.00020676108
-0.04768789 -0.040107265 -0.055227015 -0.02993782 -0.097530626 0.048653275 -0.053991698 0.0116321165
0.07929355 -0.06628636 -0.11113141 -0.13137642 -0.06268358 -0.0044106185 0.0720579 0.01031329
0.03154381 0.075053684 0.005687112 0.098793685 -0.026340118 0.080484554 0.0726539 0.07568569
0.035950586 0.084620185 -0.010353715 0.18501522 -0.0727124 0.046401575 -0.0065763397 0.14506342
0.15417342 -0.030613087 -0.033755515 0.08760709 0.08885715 0.13160707 -0.21765465 0.04746272
0.09641997 -0.008657921 -0.0137298135 0.07359859 0.08135046 0.08369648 -0.02658083 -0.0863344
0.063586764 0.20480943 -0.01770727 -0.07589838 -0.105747834 0.10286706 -0.011710157 -0.06368468
-0.062578596 -0.03360137 0.009817588 -0.031115696 0.04300838 -0.1002685 -0.06980933 -0.20062645
-0.08133115 -0.15386695 -0.19982581 -0.27554566 -0.04628451 -0.11292392 -0.15153825 -0.079016045
-0.117939614 0.08289848 0.08031936 -0.07753857 -0.09434851 -0.007415762 0.13675253 0.10650387
-0.10212054 -0.06389936 0.012014234 -0.056990374 -0.18936515 0.10838301 0.074452125 0.18319143
-0.122259274 -0.10387731 0.037491664 0.047949515 -0.019180177 -0.00030023447 -0.070668675 0.046712566
0.08218777 0.085992955 -3.1444823e-05 -0.011679921 0.040965598 0.12949602 0.015758201 0.014906002
-0.103408955 0.0984301 0.017927459 -0.092343755 -0.052358024 0.20978227 0.1489737 -0.0056218295
-0.14188223 0.38394397 0.13293459 0.029193912 -0.14153516 -0.19103432 0.003963438 -0.021149287
-0.06944409 0.01597082 0.07269675 -0.124386035 -0.06989723 -0.119499594 -0.00035671706 -0.010747581
-0.09017782 -0.18277884 -0.2032 -0.14736037 -0.05986606 0.004495228 -0.13467062 -0.21534492
-0.16605186 -0.055002764 -0.026819576 -0.099074505 -0.1567872 -0.16087925 -0.20133933 0.16860554
0.11839082 0.10115247 0.050555803 -0.091950744 -0.011633289 0.1211804 0.07201626 -0.08693178
-0.01072425 0.008067168 -0.025428023 0.055528678 0.07780961 0.045070514 -0.018693991 -0.017205724
0.04231467 0.022639351 -0.0044910554 -0.019825911 0.04701647 -0.08631996 -0.069212474 0.06514794
0.0701104 -0.016672542 -0.09029209 -0.07122717 0.029515188 0.046089336 -0.14276472 -0.09275186
-0.09415121 -0.06342977 0.09325016 -0.094252884 -0.1258144 -0.08116737 -0.03499725 0.03747723
-0.14992312 -0.145571 0.038166784 -0.012120412 -0.04286749 -0.17854886 -0.09815608 -0.14513905
-0.1433052 0.010969403 -0.020154007 -0.096816145 -0.053912662 -0.08502218 0.02976905 0.034717754
-0.04364061 -0.041526366 -0.009899489 0.020383243 0.094966285 -0.020658616 0.03103792 -0.067138635
0.09115814 0.07958705 0.017993024 0.06398428 0.027102634 0.07140453 0.079121925 0.053330217
0.02082955 0.036599316 0.051556904 0.086563185 0.017433947 -0.03411685 -0.06265879 0.14930587
00000000: b240 e4bd 1eb4 e4bc be9a 773c c01e febd
00000010: f7ce f8bd c746 953b 2bd8 f7bd 428b 00be
00000020: ac8d 3dbe 1a16 fdbd 0426 a9bd 38ed 16be
00000030: b05b 67be 7b37 ae3b ee47 5d3e 2967 0fbe
00000040: befa d1bd 059d 0a3e d5a2 5e3e dbc6 503e
00000050: dd07 d8bd 0e78 b53d 011d 2b3e 3c86 263e
00000060: da07 fa3c 3914 ddbc 4754 a8bc 6772 373c
00000070: ea27 b33b a307 18be db25 283d 01ce 5839
00000080: 6054 43bd 8447 24bd b935 62bd 2940 f5bc
00000090: 23be c7bd a848 473d 6626 5dbd a294 3e3c
000000a0: a864 a23d 25c1 87bd dd98 e3bd 8a87 06be
000000b0: 4060 80bd f386 90bb 1893 933d 13f9 283c
000000c0: 1534 013d bfb5 993d f45a ba3b 5854 ca3d
000000d0: 3bc7 d7bc 16d5 a43d 91cb 943d 1901 9b3d
000000e0: ec40 133d 594d ad3d a1a2 29bc a174 3d3e
000000f0: 3dea 94bd 940f 3e3d 567e d7bb 818b 143e
00000100: a3df 1d3e 4cc8 fabc 3943 0abd 596b b33d
00000110: bdfa b53d 01c4 063e dce0 5ebe 4568 423d
00000120: d577 c53d f4d9 0dbc 03f3 60bc dcba 963d
00000130: 129b a63d 0f69 ab3d 0ac0 d9bc 17d0 b0bd
00000140: c739 823d 90b9 513e d60e 91bc 9c70 9bbd
00000150: 5292 d8bd f7ab d23d f5db 3fbc 1d6d 82bd
00000160: 3529 80bd 97a1 09bd f3d9 203c 58e6 febc
00000170: 8e29 303d 9259 cdbd 32f8 8ebd 0571 4dbe
00000180: f290 a6bd 4c8f 1dbe 239f 4cbe 5214 8dbe
00000190: d494 3dbd a844 e7bd d82c 1bbe 2ad3 a1bd
000001a0: 538a f1bd aec6 a93d 7a7e a43d 8bcc 9ebd
000001b0: cb39 c1bd ecff f2bb db08 0c3e b31e da3d
000001c0: 9324 d1bd abdd 82bd 5ad7 443c bd6e 69bd
000001d0: f0e8 41be e9f7 dd3d 5b7a 983d 8996 3b3e
000001e0: 1263 fabd a1bd d4bd dc90 193d b666 443d
000001f0: bf1f 9dbc ca68 9db9 bdba 90bd ad55 3f3d
00000200: 1052 a83d 131d b03d 9fe3 03b8 245d 3fbc
00000210: 8bcb 273d 9b9a 043e 5817 813c 4e38 743c
00000220: 13c8 d3bd b895 c93d 9bdc 923c b91e bdbd
00000230: 5e75 56bd 2ad1 563e 908c 183e 5337 b8bb
00000240: 9349 11be 4e94 c43e 0120 083e 1228 ef3c
00000250: 98ee 10be 809e 43be badf 813b 4541 adbc
00000260: b438 8ebd 3dd5 823c 09e2 943d 1bbe febd
00000270: 4726 8fbd 34bc f4bd c105 bbb9 9f16 30bc
00000280: 26af b8bd 602a 3bbe a913 50be a3e5 16be
00000290: 1d36 75bd b54c 933b 18e7 09be 6183 5cbe
000002a0: 8009 2abe 944a 61bd bab4 dbbc 93e7 cabd
000002b0: d38c 20be 88bd 24be e62b 4ebe eea6 2c3e
000002c0: e376 f23d 0729 cf3d 9a13 4f3d ac50 bcbd
000002d0: 8d99 3ebc 6e2d f83d 437d 933d 4a09 b2bd
000002e0: c4b4 2fbc 282c 043c 6e4e d0bc 0a72 633d
000002f0: a55a 9f3d dc9b 383d 2424 99bc 05f3 8cbc
00000300: 2652 2d3d 2976 b93c b429 93bb f369 a2bc
00000310: 5894 403d 85c8 b0bd 45bf 8dbd 486c 853d
00000320: 0b96 8f3d db94 88bc 0feb b8bd 8ddf 91bd
00000330: d6c9 f13c 2cc8 3c3d ea30 12be b0f4 bdbd
00000340: 59d2 c0bd 78e7 81bd f1f9 be3d a807 c1bd
00000350: 7dd5 00be 143b a6bd 4759 0fbd b981 193d
00000360: 7285 19be 9010 15be c654 1c3d b194 46bc
00000370: d295 2fbd 83d5 36be 0e06 c9bd 559f 14be
00000380: 99be 12be 03b9 333c 041a a5bc 8b47 c6bd
00000390: 86d3 5cbd 1c20 aebd 39de f33c 3434 0e3d
000003a0: 7fc0 32bd 8d17 2abd 7731 22bc c2fa a63c
000003b0: af7d c23d 423c a9bc 3c43 fe3c fb7f 89bd
000003c0: 1eb1 ba3d 89fe a23d 1b66 933c 310a 833d
000003d0: 5806 de3c 8a3c 923d ad0a a23d c970 5a3d
000003e0: bca2 aa3c 2ae9 153d 552d 533d 0a48 b13d
000003f0: a3d1 8e3c 1cbe 0bbd 4053 80bd a3e3 183e

conv2.bias f4 [16]
0.024296617 0.28117108 -0.09161935 -0.16381687 0.099922836 0.121866256 0.30993694 -0.15746267
-0.23354603 -0.26227203 0.053198837 -0.21094252 0.09444013 0.10521469 0.13196905 0.037393972
00000000: b309 c73c a8f5 8f3e eda2 bbbd 9cbf 27be
00000010: 58a4 cc3d 0495 f93d 0eb0 9e3e e53d 21be
00000020: b126 6fbe 8548 86be 06e7 593d 5101 58be
00000030: d469 c13d cd7a d73d e522 073e 6c2a 193d

fc1.weight f4 [120, 400]
0.020656329 -0.026115563 -0.033926837 0.013979273 -0.06995021 0.008938454 0.0024468554 -0.044108476
-0.011327686 -0.0048122467 0.005024134 -0.044761922 0.0033733046 -0.0099114375 -0.0511056 -0.006540998
0.012788025 -0.04130639 -0.012242282 -0.0033862013 0.041051447 -0.049712304 -0.039693587 -0.03547628
-0.05057556 -0.036223814 -0.04898915 -0.050239686 -0.0028832443 -0.053373292 -0.04795248 0.014095574
-0.076469354 0.02077947 0.0059286924 -0.058672242 -0.035345137 -0.052342396 -0.019094842 -0.03792392
-0.007390745 -0.069387764 -0.058149453 0.0049701026 0.027119236 -0.03022012 0.00052890496 -0.04918567
-0.060344856 -0.04382531 0.0010542322 -0.01691928 -0.009681345 -0.05263704 -0.035865873 -0.05137551
-0.01155282 0.0013485572 0.006132573 -0.06414659 0.0093949 -0.022881782 -0.011023307 -0.0017375993
-0.031225359 -0.007816502 -0.04081229 -0.023613067 -0.044408616 -0.014979136 -0.03262797 -0.04265408
0.012567701 -0.005831483 0.042086326 0.003386388 0.008822409 -0.05614284 -0.08129581 -0.04714986
-0.058262207 -0.060435362 0.006810433 -0.04405608 -0.0023681552 -0.043160208 -0.07533696 -0.062663876
-0.0621279 -0.039594118 -0.068841994 -0.05169336 0.00093275437 0.010279146 -0.05943173 -0.042787343
-0.053811856 -0.040828925 -0.018174902 -0.020492898 -0.05642907 0.0050315256 -0.038103156 -0.064227544
0.004961199 -0.027003065 0.005415352 -0.035741344 -0.029051172 -0.041532796 -0.047164984 -0.016445756
-0.07433019 -0.023680417 -0.030837644 -0.01866193 -0.06357477 -0.06420271 -0.016256623 -0.023379806
-0.0052756565 -0.047004167 -0.07801909 -0.04204904 -0.07425254 0.024922851 -0.036597382 0.013414301
-0.0042883074 -0.047445513 -0.056990683 0.029237872 -0.035686985 -0.006334768 -0.028279832 -0.0419956
0.008143984 -0.04330142 -0.021056721 -0.031376183 -0.0032780971 -0.030884769 -0.012425337 0.00538445
-0.0065209256 -0.056155514 0.01462602 -0.05309706 -0.003836036 -0.02574701 -0.054603525 0.021771727
0.013909849 0.025020711 -0.009083869 -0.04226146 0.014765779 -0.05360138 -0.032124806 0.03717358
-0.04366484 -0.055871703 0.0002861775 -0.03850163 0.03137588 0.0070534423 -0.039812975 -0.02496088
-0.0024332267 0.03767865 0.007962317 -0.03533492 0.024086878 -0.033145554 -0.021759247 -0.03575006
0.02794065 -0.05065139 -0.07543411 -0.004113975 0.028315062 0.0015811205 0.04011338 -0.08077957
-0.0776565 -0.05439612 -0.018338857 -0.024603078 0.004451068 -0.034290813 -0.036219556 0.004123759
-0.03776313 -0.029595753 -0.019350404 -0.044587214 -0.044066217 0.0032628165 -0.03716293 -0.0545198
-0.032221936 0.022661408 -0.049563874 0.010914638 0.0014187825 -0.016947722 0.018369552 0.0065033035
-0.047819138 0.012516881 0.022963017 -0.05150513 -0.0003035286 0.033745874 -0.004584739 -0.011764452
-0.014086963 -0.055583764 -0.033437803 -0.04519626 0.02670219 -0.01275236 0.017304905 0.003758823
-0.051428214 0.02115694 -0.04728407 -0.02257042 0.03939475 -0.013093599 0.0016829744 -0.03568508
0.009975211 0.017802311 -0.07675463 -0.007274043 0.013872299 0.012870854 -0.02781053 -0.0007480041
-0.030699134 0.0039413087 -0.0038282257 -0.035340082 -0.024759116 -0.045482665 0.032913547 0.036952075
0.048905466 -0.051822923 0.0141712 0.038955685 0.03756889 0.029615667 -0.037976664 0.019246576
00000000: 7637 a93c 4ef0 d5bc def6 0abd 5209 653c
00000010: 0e42 8fbd 9872 123c 6c5b 203b 17ab 34bd
00000020: c297 39bc 0db0 9dbb 7ea1 a43b 4758 37bd
00000030: a912 5d3b 9563 22bc 1b54 51bd de55 d6bb
00000040: dd84 513c e430 29bd da93 48bc 08eb 5dbb
00000050: 9025 283d 219f 4bbd be95 22bd 934f 11bd
00000060: 5228 4fbd 6c5f 14bd d9a8 48bd 21c8 4dbd
00000070: d0f4 3cbb f49d 5abd d269 44bd 1ff1 663c
00000080: f79b 9cbd b539 aa3c 7a45 c23b 4e52 70bd
00000090: 10c6 10bd fb64 56bd c96c 9cbc 1d56 1bbd
000000a0: 102e f2bb 2c1b 8ebd 1f2e 6ebd 3edc a23b
000000b0: 2929 de3c 2f90 f7bc 36a6 0a3a ea76 49bd
000000c0: 2b2c 77bd 2b82 33bd 2a2e 8a3a 4d9a 8abc
000000d0: 819e 1ebc f099 57bd 18e8 12bd 206f 52bd
000000e0: 0a48 3dbc 12c2 b03a c0f3 c83b 4a5f 83bd
000000f0: 11ed 193c 9372 bbbc 1a9b 34bc 28c0 e3ba
00000100: 53cc ffbc c910 00bc ca2a 27bd 3170 c1bc
00000110: cfe5 35bd 0d6b 75bc e8a4 05bd 0bb6 2ebd
00000120: c2e8 4d3c 0616 bfbb b662 2c3d 2aee 5d3b
00000130: de8b 103c 09f6 65bd 6b7e a6bd 3620 41bd
00000140: 5aa4 6ebd 128b 77bd 0e2a df3b 2674 34bd
00000150: 0d33 1bbb c2c8 30bd 444a 9abd eb55 80bd
00000160: d379 7ebd 712d 22bd 08fd 8cbd 6bbc 53bd
00000170: 1684 743a dd69 283c b06e 73bd c841 2fbd
00000180: d269 5cbd 3b3c 27bd 88e3 94bc b9e0 a7bc
00000190: 2b22 67bd 7fdf a43b 0e12 1cbd bb89 83bd
000001a0: 8e91 a23b 8835 ddbc 4473 b13b 8465 12bd
000001b0: b9fc edbc 4b1e 2abd 1230 41bd 40b9 86bc
000001c0: 6d3a 98bd 6ffd c1bc 3a9f fcbc e7e0 98bc
000001d0: 7d33 82bd b67c 83bd 9c2c 85bc 0287 bfbc
000001e0: 6adf acbb 7187 40bd 79c8 9fbd 9d3b 2cbd
000001f0: b711 98bd 022b cc3c 23e7 15bd a8c7 5b3c
00000200: ee84 8cbb 3a56 42bd 106f 69bd 4384 ef3c
00000210: 842c 12bd e393 cfbb 1bab e7bc 9403 2cbd
00000220: 586e 053c d45c 31bd 257f acbc 5084 00bd
00000230: 58d5 56bb 0e02 fdbc a493 4bbc 0a70 b03b
00000240: 7dad d5bb 5303 66bd f9a1 6f3c 4e7c 59bd
00000250: 0166 7bbb 65eb d2bc f2a7 5fbd 9f5a b23c
00000260: 23e6 633c 3cf8 cc3c 82d4 14bc 5a1a 2dbd
00000270: 2aec 713c 1f8d 5bbd 4d95 03bd 5343 183d
00000280: e7d9 32bd bad9 64bd 180a 9639 e3b3 1dbd
00000290: ff83 003d 9020 e73b ee12 23bd c27a ccbc
000002a0: c576 1fbb ee54 1a3d 6174 023c 59bb 10bd
000002b0: d851 c53c a2c3 07bd 7340 b2bc a86e 12bd
000002c0: cae3 e43c d577 4fbd 337d 9abd 86ce 86bb
000002d0: fdf4 e73c 9a3d cf3a ed4d 243d c26f a5bd
000002e0: 5f0a 9fbd 77ce 5ebd 5f3b 96bc 658c c9bc
000002f0: 44da 913b 8674 0cbd f55a 14bd 9920 873b
00000300: 83ad 1abd cb72 f2bc bd84 9ebc 15a1 36bd
00000310: c77e 34bd fad4 553b 2838 18bd 2750 5fbd
00000320: 26fb 03bd 6ba4 b93c 7d03 4bbd 4fd3 323c
00000330: 71f6 b93a f3d5 8abc be7b 963c aa19 d53b
00000340: 00de 43bd 9b13 4d3c f01c bc3c 0bf7 52bd
00000350: eb22 9fb9 1d39 0a3d 943b 96bb b0bf 40bc
00000360: 01cd 66bc cdab 63bd 14f6 08bd b71f 39bd
00000370: 8dbe da3c 46ef 50bc 04c3 8d3c 9656 763b
00000380: 64a6 52bd 5251 ad3c f1ac 41bd 9ae5 b8bc
00000390: 645c 213d 8986 56bc 4097 dc3a 852a 12bd
000003a0: 116f 233c 27d6 913c 8831 9dbd 185b eebb
000003b0: a448 633c 46e0 523c e9d2 e3bc b515 44ba
000003c0: c07c fbbc 1826 813b f8e2 7abb c3c0 10bd
000003d0: a1d3 cabc 084c 3abd 5bd0 063d 0f5b 173d
000003e0: 1951 483d 4644 54bd 522e 683c ff8f 1f3d
000003f0: d6e1 193d 8e9c f23c 6b8d 1bbd ffaa 9d3c

fc1.bias f4 [120]
-0.046049155 0.19771257 0.060538445 0.024285639 -0.05241478 -0.014559898 0.004715799 -0.073284954
0.127785 0.159369 -0.09877396 -0.0554896 0.4304407 0.14317185 0.052729167 0.005224789
0.017244184 -0.049871426 0.0056928624 -0.0763805 0.33392695 -0.33636692 0.10007224 0.36642012
0.3694879 0.03770062 0.38976735 -0.055678226 -0.04527705 -0.044570472 0.27573904 -0.06405064
0.036803983 -0.2628957 0.08046845 -0.035334464 0.015259398 -0.112150215 0.16893137 0.22340046
-0.04588682 -0.0131652905 0.032947987 -0.06506257 0.07794171 0.3447429 0.21053311 0.16737993
0.2669186 0.03964807 0.06040661 -0.039150603 -0.15945035 -0.046769697 0.4604517 -0.02016859
-0.07461055 0.33359995 0.009436328 -0.051290054 0.26293176 -0.036776625 -0.03358951 -0.0041000065
-0.054038778 0.4212603 -0.12158257 -0.05817556 -0.011201319 0.17061658 0.35375053 -0.12279066
0.02494885 -0.039349794 -0.00273227 -0.043854125 0.25986934 0.29143104 0.061072532 -0.055153538
-0.076577164 -0.07443595 0.0023962993 -0.014590038 -0.23178488 0.15532382 -0.06947341 0.40752974
0.19281119 -0.15715897 0.070696525 -0.07806937 0.102573656 0.38859263 -0.10824723 0.281391
-0.29158476 -0.06581979 -0.03052565 -0.0465917 -0.28646103 0.10351839 -0.07098151 0.12926725
0.31121635 -0.11518641 -0.23157233 -0.06701296 -0.008910211 -0.14130445 -0.11460041 -0.09078243
0.23538652 -0.03965596 0.13867916 -0.1546303 -0.08781952 0.25884804 -0.05544933 0.23239739
00000000: 0a9e 3cbd 2a75 4a3e 29f7 773d adf2 c63c
00000010: e1b0 56bd a38c 6ebc fd86 9a3b 6c16 96bd
00000020: 12da 023e a131 233e 004a cabd 1049 63bd
00000030: b962 dc3e a49b 123e 8afa 573d b534 ab3b
00000040: ad43 8d3c fb45 4cbd 318b ba3b 616d 9cbd
00000050: 79f8 aa3e 4938 acbe adf2 cc3d 6b9b bb3e
00000060: 852d bd3e f76b 1a3d 968f c73e da0e 64bd
00000070: 6e74 39bd 878f 36bd ab2d 8d3e fb2c 83bd
00000080: c6bf 163d 449a 86be a5cc a43d dfba 10bd
00000090: 8e02 7a3c 03af e5bd 58fc 2c3e 17c3 643e
000000a0: d1f3 3bbd 3bb3 57bc 78f4 063d 863f 85bd
000000b0: e79f 9f3d 2482 b03e fe95 573e a565 2b3e
000000c0: 8ea9 883e 0466 223d ec6c 773d 625c 20bd
000000d0: f446 23be 9591 3fbd 53c0 eb3e 9938 a5bc
000000e0: 6bcd 98bd 9dcd aa3e d49a 1a3c 8515 52bd
000000f0: fe9e 863e 16a3 16bd 2795 09bd 5959 86bb
00000100: c457 5dbd 6eaf d73e 4800 f9bd 7f49 6ebd
00000110: bd85 37bc 1db6 2e3e ca1e b53e ab79 fbbd
00000120: 8861 cc3c 402d 21bd e20f 33bb 62a0 33bd
00000130: 980d 853e 7336 953e 3127 7a3d ade8 61bd
00000140: 7dd4 9cbd e071 98bd 3b0b 1d3b 0e0b 6fbc
00000150: 0459 6dbe 350d 1f3e 1348 8ebd bda7 d03e
00000160: 4c70 453e 48ee 20be 57c9 903d d5e2 9fbd
00000170: 2312 d23d 9df5 c63e b9b0 ddbd 7b12 903e
00000180: 994a 95be 87cc 86bd ee10 fabc f0d6 3ebd
00000190: 05ab 92be 7301 d43d c15e 91bd a25e 043e
000001a0: c057 9f3e dae6 ebbd 4c21 6dbe 173e 89bd
000001b0: 22fc 11bc 1db2 10be 9fb3 eabd 23ec b9bd
000001c0: 2a09 713e 4a6e 22bd e901 0e3e 6857 1ebe
000001d0: b8da b3bd bb87 843e d61e 63bd 95f9 6d3e

fc2.weight f4 [84, 120]
0.039930843 -0.0324753 0.024315786 0.16857995 -0.07092389 0.028424669 -0.034615107 0.12289211
-0.08193826 -0.14463402 0.08303044 0.035980772 -0.087576255 -0.020320335 -0.03961846 0.072653055
-0.018754372 -0.07581312 -0.07082636 0.0035087748 -0.034840073 0.07587741 -0.22174318 -0.10857917
-0.1399887 -0.0044802343 0.024845742 0.042319253 0.028783062 0.02577939 0.06090537 0.022808626
0.072693765 0.07216738 -0.09403636 0.0043605063 0.10346996 0.006171453 -0.021763206 -0.06441287
0.052366693 -0.052273907 -0.05969 0.025215067 -0.116967864 -0.06099895 -0.23137677 0.07686673
-0.22961617 0.08253606 0.060480867 -0.06513289 0.15653962 0.027630849 -0.11616687 0.0040037767
-0.028605828 -0.12877187 -0.05760611 0.042933874 -0.1445782 0.04813649 0.053225867 -0.043480147
0.07093239 -0.013887121 0.13171951 0.08680944 0.061958298 -0.036774155 -0.24411564 0.027734498
0.091017045 -8.5989064e-05 0.03769094 -0.023101822 -0.09920151 -0.036441095 -0.039230008 0.07801873
0.09723196 -0.061863292 -0.0675063 0.09463858 0.029363738 -0.033967175 0.12740861 -0.05398436
0.17788139 -0.01823352 -0.14358084 0.035460144 -0.022579394 -0.3713667 -0.041408747 0.11197892
0.025668591 0.027521608 -0.027475595 0.034648135 0.029035438 0.073715575 -0.16699213 0.04337704
-0.0037940978 0.16027619 0.2136916 0.14088723 -0.03854269 0.18331209 0.05551389 0.06303724
0.027794728 0.012518022 -0.215738 0.06258692 0.14239408 -0.052585177 -0.020044826 -0.0016264559
0.02894384 -0.22223438 -0.08433316 -0.112690605 0.0036958198 -0.014901006 0.05340534 0.034687433
0.09927822 0.021310793 -0.097225234 0.07106632 0.16224808 -0.030094039 0.086184494 0.061697062
-0.0010730209 -0.015387623 0.010558165 0.021520529 0.0706148 -0.0027552603 0.18681774 0.047094274
0.11285052 0.1815189 -0.029810477 0.06629886 0.0016263375 -0.03352764 -0.27522016 -0.090453856
0.0043015066 -0.10837691 0.17955208 0.0025071448 0.008004301 -0.037214123 -0.08884211 -0.0667655
-0.08903502 -0.025570353 -0.039158355 0.07445344 0.093470335 -0.08805298 0.26343033 -0.071078286
-0.09939378 -0.0656925 -0.09899369 -0.051235702 0.031140262 -0.007476826 0.16606186 0.032125555
0.009422007 0.15991019 0.03959326 -0.08105833 0.2585439 0.0012318431 0.107692435 0.061110213
-0.030423671 0.12183758 0.041371364 0.06027862 0.021671688 -0.027170956 0.059106518 -0.0047016027
-0.11087728 0.068984255 -0.04107291 0.05494159 0.11022722 -0.087896824 0.011096613 -0.05367244
0.048954107 0.14615901 0.065140784 0.080415 -0.06368149 -0.16600537 -0.08363299 0.019390605
-0.23128639 0.092584945 0.17653789 0.08326577 -0.0324844 0.08819387 -0.17366491 -0.06639077
-0.011319804 0.030774135 -0.14788172 -0.06846109 -0.01037107 0.18188676 0.2792353 0.11076469
0.008383568 -0.27458408 -0.0026372045 -0.016317444 0.30604494 -0.039068144 -0.015905075 -0.05144345
0.04097985 0.036596846 0.019374527 0.045673028 0.0069828946 0.078015275 -0.036152378 -0.021133088
-0.019833963 0.07177841 -0.028201608 0.18147008 0.07759291 0.056602433 -0.069284685 0.0076838816
-0.2024647 -0.109030776 -0.13607974 -0.06653154 -0.039708443 0.06195791 -0.06437838 -0.018077707
00000000: 868e 233d d204 05bd e631 c73c 39a0 2c3e
00000010: 8b40 91bd dada e83c 92c8 0dbd dcae fb3d
00000020: 3fcf a7bd f11a 14be dd0b aa3d 9360 133d
00000030: 2e5b b3bd d576 a6bc f746 22bd 20cb 943d
00000040: c5a2 99bc e943 9bbd 690d 91bd 79f3 653b
00000050: 77b4 0ebd 9e65 9b3d a510 63be c25e debd
00000060: 3359 0fbe eece 92bb 4c89 cb3c f456 2d3d
00000070: 75ca eb3c 4d2f d33c e977 793d 28d9 ba3c
00000080: 78e0 943d 7ecc 933d 2396 c0bd 94e2 8e3b
00000090: 0fe8 d33d e639 ca3b c048 b2bc e5ea 83bd
000000a0: 757e 563d 2a1d 56bd 807d 74bd d48f ce3c
000000b0: d98c efbd 09da 79bd 08ee 6cbe 4e6c 9d3d
000000c0: 8020 6bbe aa08 a93d c9ba 773d 6564 85bd
000000d0: ec4b 203e 175a e23c e5e8 edbd 1d32 833b
000000e0: c556 eabc c6dc 03be 62f4 6bbd 6edb 2f3d
000000f0: 4f0c 14be c52a 453d 5e03 5a3d 3d18 32bd
00000100: 0045 913d cf86 63bc 7be1 063e 26c9 b13d
00000110: fcc7 7d3d 7fa0 16bd 73f9 79be 7533 e33c
00000120: 2567 ba3d 0755 b4b8 d161 1a3d 0840 bdbc
00000130: 292a cbbd 4243 15bd a5af 20bd 49c8 9f3d
00000140: 8d21 c73d 5d64 7dbd be40 8abd dfd1 c13d
00000150: 398c f03c 2a21 0bbd 6777 023e b41e 5dbd
00000160: 8a26 363e 775e 95bc db06 13be a83e 113d
00000170: 6cf8 b8bc c723 bebe 389c 29bd 3455 e53d
00000180: f046 d23c ff74 e13c 8014 e1bc 34eb 0d3d
00000190: badb ed3c 31f8 963d fcff 2abe 20ac 313d
000001a0: 66a6 78bb 711f 243e f9d1 5a3e be44 103e
000001b0: f1de 1dbd 2ab6 3b3e 8862 633d ab19 813d
000001c0: c5b1 e33c 6418 4d3c 6cea 5cbe 922d 803d
000001d0: c1cf 113e 8e63 57bd 0c35 a4bc ce2e d5ba
000001e0: a21b ed3c 6991 63be ddb6 acbd 55ca e6bd
000001f0: 9135 723b 5923 74bc 8fbf 5a3d 6914 0e3d
00000200: 6152 cb3d f993 ae3c 061e c7bd 388b 913d
00000210: 5c24 263e c687 f6bc 7f81 b03d 0fb6 7c3d
00000220: 9ba4 8cba 5e1c 7cbc 27fc 2c3c d24b b03c
00000230: 7e9e 903d 9991 34bb 264d 3f3e ede5 403d
00000240: 2c1e e73d 17e0 393e 1a35 f4bc b2c7 873d
00000250: d52a d53a 4754 09bd a8e9 8cbe df3f b9bd
00000260: a7f3 8c3b b7f4 ddbd 80dc 373e e94e 243b
00000270: 7924 033c d66d 18bd daf2 b5bd 5abc 88bd
00000280: fe57 b6bd eb78 d1bc 8364 20bd 0c7b 983d
00000290: 606d bf3d 1f55 b4bd 57e0 863e 7e91 91bd
000002a0: f78e cbbd ca89 86bd 34bd cabd 87dc 51bd
000002b0: dd19 ff3c 2a00 f5bb 1f0c 2a3e 1696 033d
000002c0: c35e 1a3c 7fbf 233e 8b2c 223d e901 a6bd
000002d0: de5f 843e cc75 a13a da8d dc3d b44e 7a3d
000002e0: 103b f9bc fb85 f93d 0575 293d b7e6 763d
000002f0: d388 b13c a095 debc ad19 723d e70f 9abb
00000300: a113 e3bd 9e47 8d3d 113c 28bd 6f0a 613d
00000310: cfbe e13d 4003 b4bd 91ce 353c a2d7 5bbd
00000320: 1a84 483d b5aa 153e 8868 853d 9fb0 a43d
00000330: 716b 82bd 50fd 29be c647 abbd 0cd9 9e3c
00000340: 57d6 6cbe 2d9d bd3d 59c6 343e 3e87 aa3d
00000350: 5d0e 05bd fd9e b43d 37d5 31be e2f7 87bd
00000360: b376 39bc 0a1a fc3c 4e6e 17be 5435 8cbd
00000370: 6ceb 29bc 8640 3a3e eef7 8e3e 99d8 e23d
00000380: 3c5b 093c 4996 8cbe f3d4 2cbb 29ac 85bc
00000390: ecb1 9c3e eb05 20bd 5c4b 82bc 5eb6 52bd
000003a0: 7dda 273d 93e6 153d 54b7 9e3c a413 3b3d
000003b0: c4d0 e43b 79c6 9f3d 8414 14bd 4c1f adbc
000003c0: d67a a2bc 8f00 933d 0f07 e7bc 4bd3 393e
000003d0: 08e9 9e3d f4d7 673d 21e5 8dbd 12c9 fb3b
000003e0: e852 4fbe 874b dfbd 7d58 0bbe b041 88bd
000003f0: 52a5 22bd 94c7 7d3d d0d8 83bd b317 94bc

fc2.bias f4 [84]
-0.019939447 0.17216603 0.38555965 0.20271944 -0.020470114 0.049097028 0.20246904 0.025300436
0.01329016 -0.12137295 -0.059108246 0.09770054 0.10827991 0.026588203 0.04992686 -0.12426408
0.025019825 -0.113810904 0.19180322 0.04230489 0.36502162 -0.076383516 0.041947372 0.16936706
0.020494917 0.31305793 0.042566467 0.07427151 0.21559225 0.2614529 -0.07536217 0.18627328
-0.18152401 0.10411433 -0.10115617 0.107850574 0.030053977 0.0799416 -0.2167255 -0.077544734
0.2561389 -0.008603102 0.11340462 0.301181 0.11232337 0.3454309 0.07359146 0.10673763
0.39516076 0.009151504 -0.08315509 -0.037575852 0.27137128 0.0034443422 0.3007945 0.12942126
-0.11269202 0.032035496 -0.066679426 -0.119279385 -0.12040268 -0.081417255 0.25871477 -0.09414142
0.034545 -0.12528692 -0.09774619 0.29168648 -0.039744105 0.0031284976 -0.074260354 -0.027674314
-0.09942118 0.007876289 -0.09672891 0.31705588 0.4356424 0.18370137 -0.076446496 -0.05822303
-0.088602334 0.17564584 -0.07753475 -0.049383316
00000000: 0d58 a3bc 4b4c 303e 1368 c53e af95 4f3e
00000010: f1b0 a7bc f719 493d 0b54 4f3e dc42 cf3c
00000020: f9be 593c 6292 f8bd 7d1b 72bd 3917 c83d
00000030: dcc1 dd3d 81cf d93c 1b80 4c3d 2a7e febd
00000040: 60f6 cc3c b115 e9bd 1068 443e e447 2d3d
00000050: 1de4 ba3e f66e 9cbd 02d1 2b3d 8f6e 2d3e
00000060: f5e4 a73c 2149 a03e 2d5a 2e3d a91b 983d
00000070: 37c4 5c3e 28dd 853e 7b57 9abd 6cbe 3e3e
00000080: 6ee1 39be e539 d53d f72a cfbd c3e0 dc3d
00000090: c233 f63c 6cb8 a33d 4aed 5dbe c6cf 9ebd
000000a0: a324 833e 06f4 0cbc ae40 e83d 6534 9a3e
000000b0: cc09 e63d 52dc b03e 1fb7 963d 4299 da3d
000000c0: 8352 ca3e 31f0 153c 374d aabd 23e9 19bd
000000d0: 2df1 8a3e 79ba 613b bd01 9a3e 0287 043e
000000e0: 13cb e6bd a737 033d 398f 88bd c048 f4bd
000000f0: ae95 f6bd 17be a6bd 4376 843e 38cd c0bd
00000100: 0f7f 0d3d 374b 00be 282f c8bd ee57 953e
00000110: b7ca 22bd 7b07 4d3b d015 98bd 3eb5 e2bc
00000120: 559d cbbd 8d0b 013c cf19 c6bd 2655 a23e
00000130: 850c df3e 361c 3c3e fb8f 9cbd 467b 6ebd
00000140: 2475 b5bd 81dc 333e 8aca 9ebd 2946 4abd

fc3.weight f4 [10, 84]
-0.010905819 0.19344509 -0.304152 -0.19680274 0.14193062 -0.23917462 0.055705935 -0.023544313
-0.32160312 -0.2420223 0.21754108 0.13460737 0.16794446 0.08162939 -0.17498387 -0.05499093
-0.057762053 0.2779875 -0.08937166 0.0039711366 -0.09644339 -0.07053924 -0.1746646 -0.065404296
0.10420337 -0.22387524 0.03404256 -0.11191736 -0.10426451 0.09843135 -0.09111608 -0.18339103
-0.13055374 0.051215786 0.09439248 -0.18072945 -0.021231372 0.13161114 0.18949132 0.033045527
-0.39133006 0.1039005 -0.08943154 -0.14782643 0.2826308 -0.09051905 0.14325221 0.1398091
-0.3417461 0.07632485 -0.13580939 -0.025370227 -0.03303225 0.042580698 0.0045642518 -0.2065116
0.1151568 -0.05227594 0.001066189 -0.0113767795 0.23218282 -0.023364663 -0.07274937 0.12621832
-0.084707744 0.12000755 0.1292259 0.1092883 0.16893996 0.055666 -0.10056367 -0.1658752
-0.095657036 0.044490397 -0.020282315 -0.11264581 -0.119592816 0.11143777 -0.0029179142 0.18434224
-0.027773011 -0.10770862 -0.16232918 0.01793831 0.0053604785 -0.11455121 -0.21799543 0.045183487
-0.31573913 0.17985824 -0.024759384 -0.24180382 0.08127566 0.10610792 0.14840426 -0.04272697
0.13678712 -0.04455276 -0.025838114 0.021044444 -0.023029933 0.0030211306 -0.30748674 -0.04250399
-0.24094363 -0.09635679 0.041995283 -0.06199065 -0.1418005 -0.030026276 0.12437843 0.084798485
0.050011955 -0.28673956 0.16637966 0.04474743 0.25945714 -0.06627261 -0.23844758 -0.10278842
-0.056311257 0.04874107 -0.03649591 -0.018081175 -0.112695485 0.08047463 -0.041812476 -0.15523027
-0.047054626 -0.20025133 -0.20510457 0.040956445 -0.12614314 0.068768084 0.055396557 0.064785555
-0.24193959 0.09907981 -0.18223009 0.15663967 0.10052193 0.042129375 -0.046296943 0.064944334
-0.09948233 -0.042911503 -0.01797132 -0.012587112 0.19050772 0.2384427 -0.19015008 -0.09492434
0.12196644 0.10755054 -0.059365198 0.057217494 0.06610448 -0.08440528 -0.102363616 -0.16213496
-0.32375258 -0.28549778 0.12621203 0.12463706 -0.07475688 -0.381211 -0.0728512 -0.13288867
-0.14699382 0.17786306 0.068199806 -0.09828712 0.03768015 0.051587 -0.016507033 0.019083422
-0.22111094 0.08671294 0.2263945 0.2614706 0.022935119 -0.111224785 -0.16003104 -0.09562953
0.34725338 -0.021183034 0.025692716 0.020571722 -0.04722229 -0.18928212 -0.243353 0.12072889
0.11379716 0.2041001 -0.106861286 -0.18492754 0.107779294 0.100033656 0.09607217 -0.11700617
0.029941373 0.107281744 0.14942355 -0.17551939 -0.031775698 -0.07323903 -0.093417875 -0.12233161
-0.06711255 0.00978145 0.028605038 -0.008889686 0.23519056 0.1639039 -0.1989509 0.011089981
0.17467384 -0.20514269 0.023564292 -0.18886428 0.035766874 0.15272586 0.20386797 -0.07424692
-0.08167608 -0.08778362 -0.090276785 0.04355537 0.014989065 0.07792855 -0.26624057 0.020231603
-0.10959654 -0.13514964 -0.04061809 0.1728553 -0.018419903 -0.14644697 0.030502183 0.13886864
-0.059482902 -0.05513206 -0.053687815 0.22026567 0.12338581 -0.055921238 0.029099748 -0.08209476
-0.050617516 0.17883417 -0.11573476 -0.27030942 -0.2189232 -0.055034228 0.18420672 -0.14595515
00000000: 52ae 32bc 7816 463e d0b9 9bbe a886 49be
00000010: 4356 113e 31ea 74be e82b 643d 01e0 c0bc
00000020: 2aa9 a4be b2d4 77be 17c3 5e3e 84d6 093e
00000030: a2f9 2b3e 4f2d a73d f92e 33be 2b3e 61bd
00000040: e797 6cbd 6154 8e3e 7d08 b7bd 4f20 823b
00000050: 1d84 c5bd e176 90bd 47db 32be b0f2 85bd
00000060: 9468 d53d 8d3f 65be 3670 0b3d ee34 e5bd
00000070: a288 d5bd 6096 c93d 119b babd dcca 3bbe
00000080: e1af 05be a5c7 513d d850 c13d 2411 39be
00000090: 6aed adbc 12c5 063e 030a 423e bf5a 073d
000000a0: 6a5c c8be c9c9 d43d e227 b7bd d05f 17be
000000b0: fcb4 903e 0d62 b9bd b5b0 123e 1e2a 0f3e
000000c0: 58f9 aebe 3450 9c3d 9e11 0bbe 39d5 cfbc
000000d0: d34c 07bd 1969 2e3d b88f 953b c777 53be
000000e0: 54d7 eb3d 4c1f 56bd 5ebf 8b3a ac65 3abc
000000f0: 55c1 6d3e 4067 bfbc 9ffd 94bd 603f 013e
00000100: 417b adbd 85c6 f53d cb53 043e 8bd2 df3d
00000110: 99fe 2c3e 0802 643d 53f4 cdbd 30db 29be
00000120: d6e7 c3bd 903b 363d 1927 a6bc d9b2 e6bd
00000130: 14ed f4bd 7c39 e43d 7a3a 3fbb 36c4 3c3e
00000140: 3a84 e3bc 5696 dcbd 9f39 26be 5df3 923c
00000150: f4a6 af3b d399 eabd 323a 5fbe 5212 393d
00000160: 8fa8 a1be c22c 383e 31d4 cabc 6c9b 77be
00000170: da73 a63d 1c4f d93d 49f7 173e 7a02 2fbd
00000180: ec11 0c3e f47c 36bd 74aa d3bc 6665 ac3c
00000190: 45a9 bcbc 29fe 453b e76e 9dbe aa18 2ebd
000001a0: edb9 76be b556 c5bd 3f03 2c3d e8e9 7dbd
000001b0: 2634 11be aaf9 f5bc 1eba fe3d d4aa ad3d
000001c0: 56d9 4c3d 87cf 92be 6e5f 2a3e 1549 373d
000001d0: 91d7 843e efb9 87bd 9a2b 74be bc82 d2bd
000001e0: a2a6 66bd b7a4 473d bc7c 15bd f91e 94bc
000001f0: e4cc e6bd e2cf a43d 8f43 2bbd aff4 1ebe
00000200: 5abc 40bd af0e 4dbe ef06 52be f2c1 273d
00000210: ab2b 01be 48d6 8c3d 80e7 623d 4aae 843d
00000220: 03bf 77be 5bea ca3d 869a 3abe 2666 203e
00000230: 71de cd3d da8f 2c3d dda1 3dbd 8901 853d
00000240: 64bd cbbd f9c3 2fbd 9738 93bc 2d3a 4ebc
00000250: 7514 433e 532a 743e b4b6 42be b167 c2bd
00000260: 8ac9 f93d 7543 dc3d ec28 73bd e45c 6a3d
00000270: c961 873d addc acbd 04a4 d1bd b506 26be
00000280: e6c2 a5be c42c 92be ba3d 013e b741 ff3d
00000290: 231a 99bd 172e c3be 0333 95bd f813 08be
000002a0: 8c85 16be bc21 363e 57ac 8b3d c24a c9bd
000002b0: 8056 1a3d e44c 533d c239 87bc d654 9c3c
000002c0: e86a 62be 8e96 b13d f6d3 673e 79df 853e
000002d0: 6ee2 bb3c d2c9 e3bd 2ddf 23be 6ad9 c3bd
000002e0: 32cb b13e 0b88 adbc 8879 d23c 0786 a83c
000002f0: 296c 41bd 2cd3 41be 8731 79be b540 f73d
00000300: 7c0e e93d 9eff 503e 17da dabd a55d 3dbe
00000310: 64bb dc3d 72de cc3d 7cc1 c43d eea0 efbd
00000320: 9c47 f53c 88b6 db3d 7d02 193e 5bbb 33be
00000330: 3c27 02bd 58fe 95bd df51 bfbd ff88 fabd
00000340: 4e72 89bd 6042 203c 1d55 ea3c 0ca6 11bc
00000350: cbd5 703e 6dd6 273e c9b9 4bbe c0b2 353c
00000360: b3dd 323e ed10 52be e709 c13c a365 41be
00000370: 4980 123d 2b64 1c3e c4c2 503e c50e 98bd
00000380: ca45 a7bd e6c7 b3bd 09e3 b8bd 1e67 323d
00000390: b294 753c 0199 9f3d af50 88be bfbc a53c
000003a0: 2774 e0bd ab64 0abe 285f 26bd fb00 313e
000003b0: 56e5 96bc 32f6 15be b7df f93c 9533 0e3e
000003c0: 58a4 73bd 28d2 61bd c1e7 5bbd 538d 613e
000003d0: b3b1 fc3d ab0d 65bd 9862 ee3c 4c21 a8bd
000003e0: 5054 4fbd 4e20 373e 5906 edbd ff65 8abe
000003f0: 672d 60be 926b 61bd b0a0 3c3e 4475 15be

fc3.bias f4 [10]
-0.04550489 -0.1561612 -0.009772944 0.08561088 0.31446436 0.05804185 -0.14385271 -0.17036986
0.22397308 -0.15700063
00000000: 5663 3abd b9e8 1fbe b31e 20bc c254 af3d
00000010: 7901 a13e 4abd 6d3d 204e 13be 7075 2ebe
00000020: 3359 653e c6c4 20be
